…
ve, pass --vmodule=xla_compilation_cache=1 (as a proper command-line flag, not via TF_XLA_FLAGS) or set the envvar XLA_FLAGS=--xla_hlo_profile.
WARNING:tensorflow:From /usr/local/lib64/python3.6/site-packages/keras/backend/tensorflow_backend.py:422: The name tf.global_variables is deprecated. Please use tf.compat.v1.global_variables instead.

50000
Model: "sequential_1"
_________________________________________________________________
Layer (type)                 Output Shape              Param #   
=================================================================
conv2d_1 (Conv2D)            (None, 32, 32, 20)        560       
_________________________________________________________________
max_pooling2d_1 (MaxPooling2 (None, 16, 16, 20)        0         
_________________________________________________________________
conv2d_2 (Conv2D)            (None, 16, 16, 50)        25050     
_________________________________________________________________
max_pooling2d_2 (MaxPooling2 (None, 8, 8, 50)          0         
_________________________________________________________________
flatten_1 (Flatten)          (None, 3200)              0         
_________________________________________________________________
dense_1 (Dense)              (None, 500)               1600500   
_________________________________________________________________
dense_2 (Dense)              (None, 10)                5010      
=================================================================
Total params: 1,631,120
Trainable params: 1,631,120
Non-trainable params: 0
_________________________________________________________________
None
Using real-time data augmentation.
Epoch 1/500

  1/100 [..............................] - ETA: 2:27 - loss: 2.3645 - accuracy: 0.0900
  2/100 [..............................] - ETA: 1:23 - loss: 3.1644 - accuracy: 0.1100
…
